logs/8x8 C(k=2, s=2)-P(k=2)-PD-L T=0.015 batch_size=16 lr=0.001/qcnn_weights.pth (torch, 14512 bytes, 2 tensors)

_postprocess.weight f4 [10, 28]
0	0xbf076301	-0.5288544
1	0xbf9a44c0	-1.2052231
2	0x3f3a0211	0.72659403
3	0xbe6bd1b9	-0.23029222
4	0x3eccf5a6	0.40031165
5	0xbeba65e3	-0.36405858
6	0xbf987c78	-1.1912985
7	0xbfa088a6	-1.2541702
8	0x3d3235e7	0.043508437
9	0xbf4f5e19	-0.81002957
10	0x3f9252c6	1.143151
11	0xbee9294d	-0.45539322
12	0xbf2ff472	-0.6873237
13	0x3f27b51d	0.6551073
14	0x3e8bff6a	0.27343303
15	0x3f333f25	0.70018226
16	0xbed68f92	-0.4190641
17	0x3f039cff	0.5141143
18	0xbe1afcfc	-0.15135568
19	0xbf57198e	-0.8402337
20	0x3b177526	0.0023110597
21	0xbe18b8d2	-0.14914253
22	0x3e8fed65	0.28110805
23	0x3f33bf7f	0.70214075
24	0x3e9ac8fd	0.30231467
25	0x3d7faf89	0.062423263
26	0x3c9719cb	0.018444916
27	0xbec5731f	-0.38564393
28	0x3f942a42	1.1575396
29	0xbf53f82d	-0.8280056
30	0x3cee474f	0.029086737
31	0x3dc83ecc	0.097776026
32	0x3eb0e07f	0.34546277
33	0xbe660922	-0.22464421
34	0x3dd05037	0.1017155
35	0x3d2e30b9	0.042526934
36	0x3dbab00a	0.09115608
37	0x3f618a23	0.88101405
38	0xbe5bcc13	-0.21464567
39	0xbe543d3f	-0.20726489
40	0x3db89f18	0.0901472
41	0x3e3bdd2f	0.18346094
42	0xbf96b474	-1.177382
43	0xbea2c2da	-0.31789285
44	0x3e3c85ca	0.18410411
45	0xbf2d20c9	-0.6762815
46	0x3fc7a688	1.5597696
47	0x3f65a83e	0.8970984
48	0xbf1d9d6e	-0.61568344
49	0x3e6eb822	0.23312429
50	0x3f1447d2	0.5792209
51	0xbefa6c8a	-0.48910934
52	0xbe8b70cd	-0.27234498
53	0xbe9708f3	-0.29499015
54	0xbe0d19b5	-0.13779338
55	0x3ddc1e77	0.10747998
56	0xbf9271b3	-1.1440948
57	0xbe1828ac	-0.14859265
58	0xbef136a4	-0.47112
59	0xbeb636bc	-0.35588634
60	0x3f04d731	0.51890856
61	0x3e41df78	0.18932903
62	0xbecb9270	-0.3976016
63	0xbe8931aa	-0.26795703
64	0xbd4bac5e	-0.04972493
65	0x3f911849	1.1335536
66	0xbeabdaa0	-0.33565235
67	0xbf203073	-0.6257393
68	0xbf9fd94f	-1.2488192
69	0xbeeb47f5	-0.45953336
70	0xbead2ce1	-0.33823302
71	0x3ddb9768	0.10722238
72	0x3daa09dc	0.08302662
73	0x3e9132d6	0.28359097
74	0x3ea7d857	0.32782242
75	0xbeb51c54	-0.35373175
76	0x3ec1a276	0.3781926
77	0x3d38b071	0.045090143
78	0x3e18faa0	0.14939356
79	0x3f84b33f	1.0367202
80	0x3f350dab	0.7072398
81	0xbef2248a	-0.47293502
82	0xbf27a539	-0.65486485
83	0x3f050b53	0.51970404
84	0xbcbec31e	-0.023286399
85	0x3ecec26d	0.4038271
86	0xbf193f39	-0.59862095
87	0xbf30d528	-0.6907525
88	0x3e302a4d	0.17203636
89	0x3f4830bc	0.7819936
90	0xbe057313	-0.13032179
91	0x3e01df26	0.1268278
92	0xbf1ef8b0	-0.62098217
93	0x3d2e1362	0.042498954
94	0xba541d77	-0.0008091549
95	0x3e72a71f	0.23696564
96	0x3b92bfad	0.004478416
97	0x3f321e7a	0.69577754
98	0xbeac3ccd	-0.33640137
99	0x3e0bc1f2	0.13648203
100	0x3dc65ec7	0.09686046
101	0xbe496f00	-0.1967125
102	0xc018f3d1	-2.3898814
103	0xbda81854	-0.08207765
104	0xbf863fbc	-1.04882
105	0xbcb41ef4	-0.021987416
106	0x3e8caac1	0.27474025
107	0x3ebee4be	0.3728389
108	0x3f008549	0.50203377
109	0xbf359d6f	-0.7094335
110	0xbe97a496	-0.29617757
111	0x3f9d32ea	1.2281163
112	0xc02e2d6b	-2.721522
113	0x3ec0c372	0.37649113
114	0xbb5a74ba	-0.0033333735
115	0x3d61d89f	0.055138227
116	0xbf90cf91	-1.1313344
117	0x3ea87832	0.32904202
118	0x3eacbe47	0.3373892
119	0x3e98443a	0.29739553
120	0xbdd90852	-0.1059729
121	0xbf4dcfda	-0.8039528
122	0x3e56f2c4	0.20991045
123	0x3ec5b94a	0.38617927
124	0x3f56948a	0.838204
125	0xbefc186f	-0.4923739
126	0x3e9216a8	0.2853291
127	0xbe521cc4	-0.20518786
128	0x3e692941	0.22769643
129	0x3eac0dc4	0.33604252
130	0xbea721ec	-0.32643068
131	0x3eaf8315	0.34279695
132	0x3f40cde2	0.7531415
133	0x3dd0ef7a	0.102019265
134	0xbf4179e0	-0.7557659
135	0xbf88181b	-1.0632356
136	0xbfd68940	-1.6760635
137	0x3d7893f0	0.06068796
138	0x3db2dd9c	0.08733675
139	0xbf10c7c9	-0.5655485
140	0x3f89cfc3	1.0766529
141	0xbe884c70	-0.26620817
142	0x3e1f0153	0.15527849
143	0xbce26647	-0.02763666
144	0x3e2a18fe	0.16611096
145	0x3f70d1dc	0.9407022
146	0x3cad0c06	0.021123897
147	0x3dd886af	0.10572564
148	0x3e3a7c92	0.18211582
149	0xbf3fccb2	-0.74921715
150	0xbfb4e7bd	-1.4133221
151	0xbea93a8b	-0.33052477
152	0x3db8cec1	0.0902381
153	0x3f51b6b8	0.8191943
154	0x3e223db9	0.15843858
155	0xbe5fa018	-0.21838415
156	0xbecadcec	-0.39621675
157	0xbc19f30d	-0.009396327
158	0xbd756822	-0.059913762
159	0xbf7b883e	-0.98254764
160	0xbf7494fe	-0.95539844
161	0x3f7c70e7	0.98609775
162	0x3dd0f95a	0.1020381
163	0xbe6acb75	-0.22929175
164	0xbd63dce7	-0.05563059
165	0x3e5cddb3	0.21568947
166	0x3e7f1650	0.24910855
167	0x3ed5299f	0.41633317
168	0x3f62d65e	0.8860835
169	0xbf5d17ce	-0.8636445
170	0xbf5834be	-0.8445548
171	0xbaa44622	-0.0012533108
172	0x3f5bb1f0	0.85818386
173	0xbf8e9ea4	-1.1142163
174	0x3c6e74c2	0.014554204
175	0x3ce35309	0.027749555
176	0x3f45bdfa	0.77243006
177	0x3e2ed669	0.17073978
178	0x3e2d4268	0.16919863
179	0xbf2e773f	-0.68150705
180	0x3f0637bc	0.52428794
181	0xbcee1abf	-0.029065488
182	0x3ef98cff	0.48740384
183	0x3ef306e5	0.47466198
184	0xbd59fef4	-0.053221658
185	0x3c38f290	0.0112883
186	0x3c981fef	0.018569915
187	0xbf0999bb	-0.537502
188	0x3f241a52	0.6410266
189	0xbf52470e	-0.8213967
190	0xbe05f34b	-0.1308109
191	0xbfce8571	-1.6134473
192	0x3e9bf467	0.30459902
193	0xbe23b0c3	-0.15985398
194	0x3e0dd0f5	0.13849242
195	0x3a363869	0.0006951155
196	0x3f60b262	0.8777219
197	0x3e1b0ab1	0.15140797
198	0x3f47ec3c	0.7809484
199	0x3d318daf	0.04334801
200	0xbffca6ce	-1.9738405
201	0xbe3ecadb	-0.1863207
202	0x3ec23263	0.37929067
203	0x3e89f782	0.26946646
204	0x3e4d36f6	0.20040497
205	0xbfbace18	-1.4594145
206	0x3dba93e7	0.091102414
207	0x3eb37b5f	0.35055062
208	0x3dcbc397	0.09949415
209	0xbf799643	-0.97494906
210	0xbd2d2065	-0.042267222
211	0x3e47838c	0.19483775
212	0x3e997a65	0.29976192
213	0xbf28991f	-0.65858644
214	0x3fa3d406	1.279908
215	0xba911b70	-0.0011070799
216	0xbf2aafcd	-0.666745
217	0x3d1d9b59	0.03847823
218	0xbdd22f40	-0.102629185
219	0x3ed81a4e	0.4220757
220	0x3e45e85a	0.19326916
221	0x3d9a0e8c	0.07522306
222	0x3e019442	0.12654212
223	0xbf68a247	-0.90872616
224	0xbc9c524e	-0.019082215
225	0x3ee710bc	0.45129955
226	0xbf149cd5	-0.58051807
227	0xbeb60335	-0.35549322
228	0x3ee633c1	0.4496136
229	0xbe878dd1	-0.26475385
230	0xbe872a7a	-0.26399595
231	0x3e6c90b9	0.23102082
232	0xbf4d8459	-0.8028007
233	0x3f0bcbb9	0.5460773
234	0x3e4f1ef4	0.20226651
235	0xbce1679d	-0.027515227
236	0x3e524325	0.20533426
237	0xbde374ff	-0.111062996
238	0x3d7afdd5	0.06127723
239	0xbf43923c	-0.7639501
240	0x3cf74090	0.030182153
241	0xbee426e1	-0.44560912
242	0xbe888273	-0.26662025
243	0x3ec092e0	0.37612057
244	0x3eb82bc7	0.359709
245	0x3e93f9ca	0.2890151
246	0xbeb099f0	-0.34492445
247	0x3e95f3ce	0.2928757
248	0xbece697b	-0.4031485
249	0x3ee59a12	0.4484411
250	0xbd011e59	-0.031523082
251	0x3e79ab68	0.24381793
252	0xbeed2150	-0.46314478
253	0x3f885cf6	1.065337
254	0x3e1e18e8	0.15439188
255	0x3f0fed19	0.5622116

_postprocess.bias f4 [10]
0	0x3e2e99c6	0.17050847
1	0x3df43ac7	0.119252734
2	0xbd75efac	-0.060043022
3	0x3de40f60	0.11135745
4	0xbc9cc986	-0.019139063
5	0x3d8b3530	0.06797254
6	0x3e0aaff9	0.1354369
7	0x3dc5f073	0.09665003
8	0x3e27a84b	0.16372792
9	0xbd0a50ff	-0.03376865
