logs/8x8 C(k=2, s=2)-P(k=2)-D-L T=1 batch_size=16 lr=0.001/qcnn_weights.pth (torch, 14512 bytes, 2 tensors)

_postprocess.weight f4 [10, 28]
0	0xc06c40d8	-3.6914577
1	0x40a5d9ae	5.182822
2	0x3f99acb6	1.2005832
3	0x4030dc9f	2.7634656
4	0xc07fda94	-3.997716
5	0xc066b6f2	-3.604916
6	0x40b02cc2	5.5054636
7	0xbf1b096a	-0.6056124
8	0xc0280cd6	-2.6257834
9	0xc0e8f366	-7.2797117
10	0xbf62b938	-0.8856387
11	0xc0aa2fb3	-5.3183227
12	0x3fa87163	1.3159603
13	0xbfc11b1c	-1.5086398
14	0xbf8f162c	-1.1178641
15	0xc01afa5a	-2.4215302
16	0x400ffd85	2.2498486
17	0x408d49f6	4.4152784
18	0x4091325e	4.5373983
19	0x3fc7dfd1	1.5615178
20	0xbeeb3e11	-0.4594579
21	0xc0a29389	-5.0805097
22	0x40095676	2.1459022
23	0x3e4c869f	0.19973229
24	0xbf949877	-1.1609029
25	0x3f015ec8	0.5053525
26	0x3f9d9474	1.2310929
27	0x3f8f5ce9	1.1200229
28	0x407743e0	3.8635178
29	0x3f60610a	0.8764807
30	0xc0552f22	-3.3310018
31	0x400fe5b1	2.2483943
32	0x3e200b59	0.15629329
33	0xc0bb561b	-5.854261
34	0x40305195	2.7549794
35	0xc04d511f	-3.2080762
36	0x3fe54c3e	1.7913892
37	0x3fb16f0a	1.3862011
38	0x406722e7	3.6115053
39	0x3fd449e7	1.6585053
40	0xbfa05a10	-1.2527485
41	0x3fde3cd4	1.7362313
42	0xbf939800	-1.1530762
43	0x405f95c3	3.4935157
44	0x3dac1163	0.08401754
45	0xc0ce49e3	-6.4465194
46	0x3f73445f	0.950262
47	0xc02fcfd4	-2.7470598
48	0x3f12bc98	0.5731902
49	0x40850726	4.1571226
50	0x3fa2b732	1.2712157
51	0xc00b12e4	-2.173028
52	0x401c443a	2.4416642
53	0xc0018212	-2.0235639
54	0xbf807beb	-1.0037817
55	0x40087523	2.1321495
56	0xc0067807	-2.101076
57	0xc062bc05	-3.5427258
58	0xc0808609	-4.0163617
59	0xbf89e6dc	-1.0773578
60	0x4093365f	4.600387
61	0x4007ad11	2.1199381
62	0xc06a52de	-3.6613078
63	0xc0f5df4a	-7.683507
64	0xc023a215	-2.5567677
65	0x3e1d1191	0.15338732
66	0xc024198d	-2.5640595
67	0x4009e407	2.1545427
68	0x403c0a1e	2.9381175
69	0x3fff49bd	1.9944378
70	0xc00ffa9f	-2.2496717
71	0xc008d6cd	-2.1381104
72	0x402f58db	2.7397983
73	0x3f37c492	0.7178432
74	0x40645ed6	3.5682883
75	0xc10d382f	-8.826217
76	0x4018f836	2.3901496
77	0xc00488e2	-2.0708547
78	0xbfd3e58c	-1.6554427
79	0x3ea5d66c	0.32390153
80	0x406a6b08	3.6627827
81	0xc0f92dfe	-7.7868643
82	0x3f785139	0.96998936
83	0xbfc0a4ac	-1.5050254
84	0xbfb125b1	-1.3839628
85	0xc0546ff1	-3.3193324
86	0x3f0a8135	0.54103404
87	0xbfb6ef4c	-1.4291778
88	0xc0d21acf	-6.5657725
89	0xbd217e44	-0.039427057
90	0xc0273b45	-2.6129925
91	0xbf8785e6	-1.0587738
92	0x4067dc6a	3.622828
93	0x3fe3f5bf	1.7809371
94	0xbf871206	-1.0552375
95	0xbf7b14c8	-0.98078585
96	0x404c345c	3.1906958
97	0xc009bce1	-2.1521533
98	0x3ff992c5	1.9497916
99	0xbfb27d1e	-1.3944433
100	0x407ab33f	3.9171903
101	0xc00ebde5	-2.2303402
102	0xc10c57a4	-8.771397
103	0xc027c838	-2.6215954
104	0x402860c7	2.6309068
105	0xbf9de263	-1.2334713
106	0x40161c86	2.345491
107	0x405a4f78	3.4111004
108	0xc0ed3990	-7.4132767
109	0xbf72b056	-0.9480032
110	0x408c29d7	4.3801074
111	0x3dc03839	0.093857236
112	0x3f96261d	1.1730381
113	0xbf874458	-1.0567732
114	0x3eafadbc	0.34312236
115	0xbfb911cf	-1.445856
116	0x40007d24	2.007638
117	0x407dc0e8	3.964899
118	0xbf563725	-0.83677894
119	0xbfe2320d	-1.7671524
120	0xc0412d10	-3.0183754
121	0x3f211ed4	0.62937665
122	0x3f29944f	0.66241926
123	0x3f2fa9ab	0.6861827
124	0xc0404aba	-3.004561
125	0x3fd959c1	1.6980516
126	0xbf722c33	-0.9459869
127	0x3f21b88e	0.63172233
128	0xc0d1714c	-6.54508
129	0xbea0c827	-0.31402704
130	0x3f776059	0.9663139
131	0xbda64dcf	-0.081203096
132	0xbffce0b5	-1.9756075
133	0x3f965827	1.1745652
134	0xc0857f1b	-4.171766
135	0xbfd7fc82	-1.6873934
136	0x3f85c405	1.0450445
137	0xc01156b7	-2.2709177
138	0xc0a46df6	-5.138423
139	0xc01fb218	-2.495245
140	0x3f9af26e	1.2105234
141	0x3f9efa3e	1.2420118
142	0x405a2230	3.4083366
143	0x3f78a70b	0.9712989
144	0xc032af07	-2.7919328
145	0xc03bd786	-2.9350295
146	0xc007b84e	-2.120624
147	0x409a9c97	4.831615
148	0xc0941069	-4.627003
149	0xc07e7ee0	-3.9764938
150	0x3f89bee2	1.0761378
151	0xbcaf9368	-0.021432593
152	0x3f1f4ac5	0.62223464
153	0xc07f13cb	-3.985583
154	0x40268e71	2.602444
155	0x401f3270	2.4874535
156	0x3f55b704	0.83482385
157	0x401fb588	2.4954548
158	0xc0a306cf	-5.094581
159	0x407daee2	3.963799
160	0x3f18fc08	0.5975957
161	0x3f6bfc06	0.9218143
162	0x3fb58b8a	1.4183209
163	0x403eeab8	2.983076
164	0xc059551d	-3.39582
165	0x408a0979	4.3136563
166	0x3fcc9112	1.5981772
167	0x3f626cc3	0.8844721
168	0xc00523f3	-2.0803192
169	0xbde4b96b	-0.11168178
170	0xc015f1ca	-2.3428826
171	0x3fca8c77	1.5824116
172	0x40aec0d5	5.461039
173	0x404ff8c7	3.2495592
174	0xc01ded6f	-2.4676168
175	0x3f8c74c6	1.0973136
176	0xc1218c9e	-10.09683
177	0xbf84d5b2	-1.0377715
178	0xbfb913ae	-1.4459131
179	0x401a875b	2.4145114
180	0xbf4dd863	-0.80408305
181	0x400714fd	2.110656
182	0x3f7c1a11	0.98477274
183	0xc0214c3a	-2.5202775
184	0xc0a86d14	-5.263315
185	0xbd12af48	-0.035811692
186	0x408fb59f	4.4909205
187	0x3ce4eb0d	0.027944112
188	0x3f6421c1	0.89114004
189	0xbf886e10	-1.0658588
190	0xc0b8b3e2	-5.7719584
191	0xc089fc63	-4.312059
192	0x40827aa8	4.0774727
193	0xbf08b80a	-0.5340582
194	0xc0800b8c	-4.0014095
195	0xc0ae0651	-5.438271
196	0x3faf46a3	1.3693432
197	0xbf5012c8	-0.8127866
198	0x3fa53aa6	1.2908523
199	0xbf72d751	-0.94859797
200	0xc0d7b84f	-6.7412486
201	0xbd946926	-0.07246618
202	0x3f252843	0.6451456
203	0x3f92e746	1.1476829
204	0x4093befe	4.6170645
205	0x4039c34c	2.902545
206	0x3f9a5084	1.2055821
207	0xc05d1ce8	-3.4548893
208	0xc094f3df	-4.6547694
209	0xc08a554b	-4.3229117
210	0xbfcadaf4	-1.5848069
211	0x3f94d527	1.1627549
212	0x3f0ec597	0.5577025
213	0x3e9b104b	0.30285868
214	0xc0e42320	-7.1292877
215	0x3f9d9b31	1.2312986
216	0xc0916ede	-4.5447836
217	0x3fd30172	1.6484816
218	0x3fd40dd6	1.6566722
219	0x3e87b6e0	0.2650671
220	0xc04ad9e8	-3.16955
221	0x400c4723	2.1918418
222	0xbfeb2075	-1.836928
223	0x4037aca5	2.8699124
224	0xc02eb3c5	-2.7297223
225	0xbfdcdfed	-1.7255837
226	0x3e16d08b	0.1472799
227	0xc08b6307	-4.3558383
228	0x400ff3a3	2.2492454
229	0xc058f493	-3.3899276
230	0xc01c651d	-2.4436715
231	0x3f9ddb12	1.233248
232	0x3f862604	1.0480351
233	0xbf9c86f7	-1.2228688
234	0xc05ba9c9	-3.4322379
235	0xbdfc4427	-0.123176865
236	0x3f74d438	0.9563632
237	0x3fbf8bdf	1.496456
238	0x3f775e66	0.96628416
239	0xc0015c46	-2.021257
240	0x3f3e18dd	0.7425669
241	0x3ea09f67	0.31371614
242	0x3f0cc2e0	0.54984856
243	0x3f3680af	0.71290106
244	0x3db3f2d3	0.087865494
245	0xc038b1e4	-2.8858576
246	0x3f5c3299	0.86014706
247	0xbd97b9a0	-0.07408452
248	0x3ecd8c4c	0.401461
249	0x3f8134d4	1.0094247
250	0x3fe64a9b	1.7991518
251	0x3e98047f	0.2969093
252	0x3f36da04	0.71426415
253	0xc0065c6e	-2.0993915
254	0x3e6a31a4	0.22870499
255	0xbf87a1dd	-1.0596272

_postprocess.bias f4 [10]
0	0x3dbe0644	0.09278539
1	0x3dbcfe85	0.09228233
2	0xbcd62ef8	-0.026145443
3	0x3ca11d2f	0.019667236
4	0x3cae0927	0.021244599
5	0x3dc1086c	0.094254345
6	0x3de54e6b	0.11196598
7	0x3df91940	0.12163019
8	0xbd8663e8	-0.06562024
9	0xbe1a1091	-0.15045382
